…
Arguments: Namespace(checkpoint_filepath='lstm_baseline.pth.tar', data_loader='fpa_dataset.FPADataLoaderObjRGBReconstruction', dataset_dict="{'root_folder': 'C:/Users/Administrator/Documents/Datasets/fpa_benchmark/', 'batch_size': 4, 'split_filename': 'fpa_split_obj_pose.p', 'img_res': (480, 270)}", log_filepath='log_net.txt', log_interval=10, lr=0.05, momentum=0.9, net='reconstruction_net.ReconstructNet', net_dict="{'num_input_channels': 3}", num_epochs=10, use_cuda=True, weight_decay=0.005)
Network params dict: {'num_input_channels': 3}
Network loaded: 
ReconstructNet(
  (conv_sequence): Sequential(
    (0): Sequential(
      (0): Conv2d(3, 32, kernel_size=(4, 4), stride=(1, 1))
      (1): BatchNorm2d(32, eps=1e-05, momentum=0.1, affine=True, track_running_stats=True)
      (2): ReLU()
    )
    (1): Sequential(
      (0): Conv2d(32, 16, kernel_size=(4, 4), stride=(1, 1))
      (1): BatchNorm2d(16, eps=1e-05, momentum=0.1, affine=True, track_running_stats=True)
      (2): ReLU()
    )
    (2): Sequential(
      (0): Conv2d(16, 8, kernel_size=(4, 4), stride=(1, 1))
      (1): BatchNorm2d(8, eps=1e-05, momentum=0.1, affine=True, track_running_stats=True)
      (2): ReLU()
    )
    (3): Sequential(
      (0): Conv2d(8, 4, kernel_size=(4, 4), stride=(1, 1))
      (1): BatchNorm2d(4, eps=1e-05, momentum=0.1, affine=True, track_running_stats=True)
      (2): ReLU()
    )
  )
  (flatten): NetBlocksFlatten()
  (deconv_sequence): Sequential(
    (0): Sequential(
      (0): ConvTranspose2d(4, 4, kernel_size=(4, 4), stride=(1, 1))
      (1): BatchNorm2d(4, eps=1e-05, momentum=0.1, affine=True, track_running_stats=True)
      (2): ReLU()
    )
    (1): Sequential(
      (0): Conv2d(4, 8, kernel_size=(4, 4), stride=(1, 1))
      (1): BatchNorm2d(8, eps=1e-05, momentum=0.1, affine=True, track_running_stats=True)
      (2): ReLU()
    )
    (2): Sequential(
      (0): Conv2d(8, 16, kernel_size=(4, 4), stride=(1, 1), padding=(11, 11))
      (1): BatchNorm2d(16, eps=1e-05, momentum=0.1, affine=True, track_running_stats=True)
      (2): ReLU()
    )
    (3): Sequential(
      (0): Conv2d(16, 32, kernel_size=(4, 4), stride=(1, 1))
      (1): BatchNorm2d(32, eps=1e-05, momentum=0.1, affine=True, track_running_stats=True)
      (2): ReLU()
    )
    (4): Sequential(
      (0): Conv2d(32, 3, kernel_size=(4, 4), stride=(1, 1))
      (1): BatchNorm2d(3, eps=1e-05, momentum=0.1, affine=True, track_running_stats=True)
      (2): ReLU()
    )
  )
)
Dataset params dict: {'root_folder': 'C:/Users/Administrator/Documents/Datasets/fpa_benchmark/', 'batch_size': 4, 'split_filename': 'fpa_split_obj_pose.p', 'img_res': (480, 270), 'type': 'train'}
Data loader loaded: <function FPADataLoaderObjRGBReconstruction at 0x000002D4282152F0>
Dataset length: 3763
…
